dqn_stanley_test/dqn_policy_net.pth (torch, 75918 bytes, 6 tensors)

layer1.weight f4 [128, 6]
000000 f3 4f 85 be 6f 4c b1 be f9 6c be 3d c3 3d fa 3b
       -0.2603756 -0.34628627 0.09298129 0.007636757
000010 a4 f4 66 3d 76 b3 f3 3e 84 c2 e1 3d 75 d0 e0 bd
       0.05638565 0.47597855 0.11023429 -0.1097726
000020 43 66 d7 3e 96 3e 94 3e 96 a9 5a 3e 75 30 9f 3c
       0.42070207 0.28954 0.21353754 0.019432286
000030 2e ce c9 bd 65 e0 17 be ba 1d cc 3e 23 6b 4a 3e
       -0.09853779 -0.14831693 0.3986643 0.19767432
000040 99 bb 85 be 45 d2 b4 3d 30 82 82 be e2 85 86 bd
       -0.26119688 0.08829168 -0.2548995 -0.06568505
000050 d8 eb 93 3e c9 6a bb 3e e9 f0 0a be 97 f4 30 bd
       0.28890872 0.36604908 -0.13568462 -0.04320201
000060 4c bf b4 3e 48 63 a3 bd 7c c4 74 be 8a ad d0 3e
       0.35302198 -0.07977921 -0.23903078 0.407574
000070 85 1b 41 3e f8 f1 53 be 9f 6d 80 3e f4 66 97 bd
       0.18858154 -0.20697773 0.25083634 -0.073926836
000080 69 e1 2b bd 2f 5d 35 bd 99 96 5c 3e 95 25 f0 bc
       -0.041963015 -0.04427832 0.21541823 -0.029314796
000090 13 58 a3 be d4 9e 4f be 2a e6 51 3e 87 da 21 3c
       -0.31903133 -0.20275432 0.20497957 0.009878761
0000a0 35 d9 71 3e 3c a5 82 be 30 c1 87 be d2 b8 9f be
       0.23618014 -0.2551669 -0.26514578 -0.31195694
0000b0 14 61 a0 bc 46 d3 ac 3e b0 5a 8a be 6b 81 99 be
       -0.01957754 0.3375494 -0.27022314 -0.2998155
0000c0 74 b8 8f be a5 e9 8c be d9 df 1e be 44 7c 66 be
       -0.28070414 -0.27522007 -0.15515079 -0.22508341
0000d0 25 98 9a 3e 89 b3 99 be 05 48 6e 3e 0e 08 a1 be
       0.30194202 -0.30019787 0.23269661 -0.31451458
0000e0 9e 80 10 3e f4 a4 ab 3e 4c b8 e8 bd 2b 14 a6 3e
       0.14111564 0.33524287 -0.11363277 0.32437262
0000f0 fe 3d 6e be 69 8b 64 be bf 33 52 be 08 57 9f 3e
       -0.23265836 -0.22318806 -0.20527552 0.31121087
000100 0f 3b e4 bd b1 54 09 bc 72 b1 3c be 5e e9 59 be
       -0.11144077 -0.008382008 -0.18427065 -0.21280429
000110 28 66 c1 be 96 8f b3 be e8 03 6a bd 61 b8 b6 3e
       -0.37773252 -0.35070485 -0.05713263 0.35687545
000120 8e 2c d1 bd 5e a1 71 3e dc 3f ec 3d 52 9f de 3e
       -0.10213576 0.23596713 0.11535618 0.43480927
000130 21 4f de bc 04 3c 81 bd de fa 64 be 2b 7c 1f be
       -0.027137341 -0.06310275 -0.22361323 -0.1557471
000140 a1 66 91 be 3f 6a 32 be 68 da 81 3d d8 c4 79 3e
       -0.28398612 -0.17423342 0.06340486 0.24391496
000150 8e ff c6 be b9 d5 7e 3c d2 41 9b bd 9b 90 2c be
       -0.38866848 0.015553885 -0.075809136 -0.16852038
000160 d2 5d d5 3d d4 46 41 be df f1 d5 3e 2f 71 e6 3d
       0.104182854 -0.18874675 0.41786095 0.11252057
000170 6b ae 03 be 8d db 0b 3e d7 0c 84 be 88 1a db 3e
       -0.12859504 0.1365797 -0.25791046 0.4279368
000180 03 18 72 3e e7 4a 03 be e2 5e aa 3e 59 6b 00 3e
       0.23641972 -0.12821542 0.33275515 0.1254095
000190 df 8f 9f be cb 2c 75 be 9b ff 0b 3d 93 a4 a5 be
       -0.31164452 -0.23942868 0.03417931 -0.32352123
0001a0 e6 ad 45 bd 78 a9 87 3e 28 3d ca 3e a7 dd 00 be
       -0.048261546 0.26496482 0.39499784 -0.12584554
0001b0 34 8c c8 be f1 5c ae 3e 6d c9 aa be 8e 9b ab be
       -0.39169466 0.34055284 -0.333568 -0.33517116
0001c0 41 f4 c3 3e 34 c2 ad 3c 1e 47 ab be d4 6e ba 3e
       0.38272288 0.021210767 -0.33452696 0.3641268
0001d0 86 ff 0a 3e c4 7d 86 3e 45 13 39 3d b5 04 e0 3d
       0.13574037 0.26267827 0.045184392 0.10938398
0001e0 bf 3f 87 bd 8a 53 f7 3d 34 a9 ee bd a4 45 a6 3d
       -0.066039555 0.12076481 -0.11653367 0.08118752
0001f0 02 0f db bd 25 43 c8 3e 37 c0 d6 3e fd f1 4c be
       -0.10696222 0.39113727 0.41943523 -0.20014186
000200 89 6d 94 3e 76 d6 c2 3e 84 d2 76 3e 8c 59 de 3b
       0.2898982 0.38054246 0.24103743 0.006785577
000210 81 4b e4 be 31 bd 47 bd 4d a4 25 3e 57 e9 0e bd
       -0.44588855 -0.04876441 0.16175957 -0.0348905
000220 d1 29 94 be ef 7f 85 3e 25 e6 ef 3a 8b 09 13 be
       -0.28938153 0.26074168 0.0018302841 -0.14359109
000230 72 23 e1 3d 95 e4 a9 be 3f 13 9f be 91 02 40 be
       0.10993089 -0.33182207 -0.3106937 -0.18750979
000240 76 70 7f 3e b5 f6 27 bd e6 8c 1f be bc ff a5 3e
       0.24945244 -0.041006763 -0.15581092 0.32421672
000250 cb 5f be 3e bc 9a e0 3e b2 92 bc 3d e4 b0 a2 3e
       0.3718246 0.43868053 0.092076674 0.31775582
000260 50 ff 98 be 62 11 a5 be 74 37 13 3e d1 12 32 be
       -0.29882288 -0.32239825 0.14376622 -0.1738999
000270 70 b8 01 3e a8 22 3d bd d2 b6 ad 3e f4 d1 ab bc
       0.12668014 -0.04617563 0.33928543 -0.020974137
000280 67 b6 e9 3e 03 a6 44 3e e9 60 a8 be 8f 1c db 3d
       0.45646974 0.19203953 -0.32886437 0.106988065
000290 69 4c 0c 3e 07 27 4d bd 3e 46 95 be c1 6e a7 be
       0.13701023 -0.050086048 -0.29155153 -0.32701686
0002a0 73 2e aa 3d 3d c5 69 3e b1 f8 a3 be 62 d0 62 be
       0.08309641 0.22829147 -0.32025674 -0.22149804
0002b0 57 61 32 be fb 59 7f be a3 be c9 3d ab 08 b9 be
       -0.17419945 -0.24936669 0.09850814 -0.36139426
0002c0 45 f1 91 be 7f 1a 2c 3d e5 01 1b be 7b 7a cd bb
       -0.28504387 0.042017456 -0.15137441 -0.0062707043
0002d0 c4 f9 e1 be 44 6f 15 bc 24 86 8e be 49 c0 d7 bd
       -0.4413587 -0.009120766 -0.27836716 -0.10534722
0002e0 ac db ac 3e 0a 2d ca 3c a2 6a 89 3c 51 09 0d be
       0.33761346 0.02467968 0.01677448 -0.13773085
0002f0 68 2e cc be e5 30 2b be 64 ab c8 3d bf dd 4a be
       -0.39879155 -0.1671787 0.09798315 -0.19811152
000300 22 36 80 bc aa 56 8f 3e 42 be a3 be fe 8e ad 3e
       -0.015650813 0.27995807 -0.31981093 0.33898157
000310 a7 ac 83 3e 32 32 57 3e 3c 96 52 3e da 49 5f 3e
       0.2571766 0.21015242 0.20565122 0.21805516
000320 79 25 29 3d 0f 71 ad 3d e6 4d cc 3e 32 82 b2 3e
       0.041295502 0.0846883 0.39903182 0.34864956
000330 67 c2 df bd 8a 45 5b bd 6e 4e 5c bc 8a 72 0f 3e
       -0.10925751 -0.053533114 -0.0134464335 0.14008537
000340 f4 6d e4 bc c2 7a 4f 3e ca ef ba 3e be 11 94 bd
       -0.027884461 0.20261672 0.3651107 -0.072299466
000350 cc e8 bf 3e b7 d4 26 be 24 29 75 3e a9 c0 c3 3d
       0.37482297 -0.16292082 0.23941475 0.095582314
000360 b9 9a b3 bd 42 39 e6 3d 95 40 c6 3d c6 ad cc bd
       -0.087697454 0.1124139 0.09680287 -0.09994082
000370 71 30 3e be 55 7c e5 3e b5 f5 5e bc 82 a2 81 3e
       -0.18573166 0.4482142 -0.013608386 0.25319296
000380 49 46 9d bd 95 ab 34 be 1b 31 af 3e 04 e8 79 3e
       -0.076794215 -0.17643578 0.34217152 0.24404913
000390 be 39 0a be 76 0c 88 be f1 44 94 3d ae 44 8c 3e
       -0.1349859 -0.26572007 0.07239712 0.27396148
0003a0 ed 9f 87 3e 2a 00 bf 3e 97 58 ea be bc ca d4 bd
       0.264892 0.37304813 -0.45770714 -0.10390231
0003b0 a4 2e c4 3d 0a de ae 3d e5 ff 9a be fa 37 bb be
       0.095792085 0.08538444 -0.30273357 -0.36566144
0003c0 08 1a 14 be 51 f0 bb be e9 2a 25 be f3 5f a9 3e
       -0.14463055 -0.36706784 -0.1612965 0.33081016
0003d0 33 29 90 3d be 6e 15 3e c9 38 9e 3e 91 5f 8a be
       0.07039108 0.14593026 0.309027 -0.27026036
0003e0 a9 26 c4 3e 3a 6e 81 bc a0 17 fe 3e 49 fc aa 3e
       0.38310745 -0.01579963 0.496274 0.33395603
0003f0 41 41 6e 3d b5 61 84 3e 8b ab 5e be 11 f4 91 be
       0.0581677 0.25855795 -0.21745126 -0.2850652

layer1.bias f4 [128]
000000 06 22 f6 3e 0e cc 6c 3e 7e c3 f7 3e ec 10 8d 3e
       0.48072833 0.23124716 0.48391336 0.27551973
000010 48 c0 8a 3e 10 e7 97 be 27 dc c5 3e 46 96 10 be
       0.27099824 -0.29668474 0.38644525 -0.14119825
000020 3e ed 33 3e 62 20 00 bd b3 ac a3 bd 17 1a db 3e
       0.1757097 -0.031280883 -0.07991924 0.42793342
000030 c4 5f 4b 3d 34 1c 14 3e 47 90 3f be 72 20 94 3e
       0.049651876 0.14463884 -0.18707381 0.28931004
000040 37 e5 92 be 12 10 96 3e 46 49 87 3b e7 5e 93 be
       -0.28690502 0.29309136 0.004128608 -0.28783342
000050 90 c9 cb 3e 23 de ed 3e 34 fb de bd 64 5d 99 3e
       0.39802217 0.4645854 -0.10887757 0.29954064
000060 a3 51 78 3d 75 d8 47 3c a1 34 9d 3e ad 35 68 3e
       0.06062473 0.0121976035 0.30704215 0.22676726
000070 4f 38 59 3e f7 b8 7a 3d cd b2 a3 3d 7b 06 7d 3d
       0.21212886 0.061211552 0.07993088 0.06177376
000080 e2 32 bf 3e 6f 24 f8 3d 62 29 dd 3d 67 af fa 3d
       0.37343508 0.12116324 0.10798909 0.122404866
000090 eb 5f dc 3e dd ac a2 be 1e 57 28 3e 9f ef a2 3d
       0.4304193 -0.3177251 0.16439483 0.0795586
0000a0 77 e3 4d 3d fd e8 a6 3e ac 73 8f 3d 0d 12 48 be
       0.050265756 0.3259963 0.070044845 -0.19538136
0000b0 31 52 69 be 62 e3 5d be 60 ba ce bd 66 f8 a9 bd
       -0.2278526 -0.21668771 -0.10094142 -0.08299331
0000c0 f5 82 50 bc c1 b4 5d 3e b3 dd 63 3d d9 eb 87 3e
       -0.012726535 0.21650983 0.05563135 0.26547125
0000d0 9c af 33 be 79 64 00 3f 74 67 a0 3d b8 28 fc bd
       -0.17547458 0.5015331 0.07832232 -0.12312454
0000e0 93 83 49 be 20 a6 81 be 6d 0a d6 3d e7 1c 1f 3e
       -0.19679098 -0.25322056 0.10451207 0.15538369
0000f0 5e 2c 7c 3e f8 6c e8 bd f1 05 2b be c4 ac 15 be
       0.246263 -0.11348909 -0.16701485 -0.14616686
000100 20 39 8a be 09 40 e8 3b 6b 9c 41 3e b8 8b 9b bb
       -0.26996708 0.0070877117 0.18907325 -0.0047468804
000110 0d 26 d4 3e 85 c9 ca be 8e 29 7d be bd 88 b0 be
       0.4143528 -0.39606872 -0.24722883 -0.34479323
000120 aa 12 e3 3e 46 9a 99 be d2 22 c4 3e 81 6b 15 bd
       0.44350177 -0.30000514 0.38307816 -0.036479477
000130 83 59 25 3d 07 19 5e 3d f0 f7 a6 be 90 ca eb 3e
       0.04036857 0.054223087 -0.32611036 0.4605298
000140 84 dc 3e bd 82 77 c6 3e dd db c2 bd 78 b8 85 be
       -0.04659702 0.38763052 -0.09514592 -0.261173
000150 d9 ce 52 be f7 5a d8 3e 84 50 e9 bd 00 f5 04 3f
       -0.20586719 0.422569 -0.1139231 0.5193634
000160 ce 92 3b bd 77 1a b2 bc 89 ac 14 be 81 b0 cf 3e
       -0.0457943 -0.021741135 -0.14518942 0.4056435
000170 90 fa aa be 8b 00 eb bd eb f0 b7 3d 61 f1 26 3e
       -0.3339429 -0.11474713 0.08981498 0.16303016
000180 2f 03 a1 3e 05 a0 e8 3d 75 51 c0 3e 4f 46 c7 be
       0.3144774 0.11358646 0.37562147 -0.3892083
000190 70 15 d4 3d 3c b7 31 3d 2c b6 1d 3d f5 7f 23 be
       0.103556514 0.043387637 0.03850381 -0.1596678
0001a0 a9 ae f1 bd 88 90 6c 3e ed de 36 3e e8 70 ac 3e
       -0.11800892 0.2310201 0.17858477 0.3367989
0001b0 d7 ed 87 3d b7 80 0a 3e 48 87 d4 3e 88 88 cc 3e
       0.06637161 0.13525663 0.4150946 0.39947915
0001c0 8d 3a e5 3e 6c d1 0c be 02 89 1a be 7b 53 de bd
       0.44771233 -0.13751763 -0.15091327 -0.108557664
0001d0 51 82 9f 3d 70 88 c4 3e 81 7b cc bc 88 2b 41 3d
       0.07788528 0.38385344 -0.024961235 0.047160655
0001e0 f3 73 89 be 24 78 76 3e be c1 b8 be 50 ab 6c 3e
       -0.26846275 0.24069268 -0.36085314 0.23112226
0001f0 69 ae a8 be 52 a4 53 be 69 ed e7 bc 10 16 84 be
       -0.32945564 -0.20668152 -0.028311448 -0.25798082

layer2.weight f4 [128, 128]
000000 fb 8b 36 3d 1d c2 98 bc 79 3e 20 bb a4 5d 59 3d
       0.04456709 -0.018647248 -0.00244513 0.05306782
000010 38 51 c0 bc a0 37 2b bb a3 8b 4a 3c c7 05 6a 3d
       -0.023476228 -0.0026125684 0.012362394 0.057134416
000020 42 71 a1 3d 45 e4 8c 3d 11 26 b9 bb 03 60 aa 3d
       0.0788293 0.068794765 -0.00565029 0.08319094
000030 8b fd a3 bd d4 e5 78 bd b4 2b e2 3c d4 76 7d bd
       -0.08007344 -0.060766056 0.02760873 -0.0618809
000040 52 17 34 3d 2b 49 71 3d 15 2c 0e 3d 05 70 9b bd
       0.043967552 0.05890767 0.03471001 -0.075897254
000050 15 fe 43 bd b2 51 8d 3b d2 27 8a bd f6 31 68 3c
       -0.047849733 0.0043127174 -0.06745876 0.014172068
000060 bb c6 a7 bd da 5c a3 3d ec 23 97 3d f2 74 e8 3b
       -0.08192202 0.079766944 0.073798984 0.007094019
000070 58 9c 3d bd c9 c2 af 3c 8f 14 cc bc 6e f4 4b bc
       -0.04629168 0.021455185 -0.024912147 -0.012448413
000080 9a 1a 64 3d 01 8c f0 bc 70 47 9e 3d 9d 5d b5 bd
       0.05568943 -0.029363634 0.07728469 -0.08855746
000090 93 2b 51 3d 9e 01 86 bd d4 08 4a bc 2d b0 aa bd
       0.051066946 -0.06543277 -0.012331206 -0.08334384
0000a0 ef 28 61 bd 83 b4 75 bc 3e 72 ad 3d 6b 3f f8 bc
       -0.054970678 -0.014996651 0.084690556 -0.030303678
0000b0 3e 1e b1 bd cb 22 d8 3c 5c 1a 1a bb 70 8f a7 bd
       -0.08648346 0.026383778 -0.0023514247 -0.081816554
0000c0 11 cb 4e 3c 81 b8 af bd 63 59 8a bd b8 5d 78 bd
       0.012621657 -0.08580113 -0.067553304 -0.060636252
0000d0 5c a0 b5 3c 90 d8 01 3d 4a f9 e7 3b 51 f5 b2 bd
       0.022171192 0.03170067 0.007079278 -0.08738197
0000e0 16 86 82 bd 13 5d e7 bc 31 51 47 bd 90 54 95 bc
       -0.06373231 -0.028242623 -0.048661415 -0.0182288
0000f0 6a 6e 76 3d c1 1f f0 3b e6 05 c5 3c 52 85 49 bc
       0.060163893 0.007328004 0.024050664 -0.012299852
000100 2a 2f fe 3b 9d 5a 2c bd e9 1e a7 3c e7 fd 81 3d
       0.0077570872 -0.042078603 0.020400481 0.06347256
000110 19 ac e4 bc f2 c1 08 bd 91 d2 46 3d b0 f0 b1 bd
       -0.027914094 -0.033388086 0.048540656 -0.086884856
000120 de e8 08 3d 69 a7 be bc 92 92 23 b9 fc ca 7b bb
       0.033425204 -0.023273187 -0.00015599493 -0.0038420549
000130 08 5c be 3d e3 a7 c1 3c 3b 7b e9 bc de 39 4f bb
       0.09294897 0.023639625 -0.028501144 -0.0031620185
000140 6c 91 fe 3c 38 4e 3f bd 41 26 a9 3c af 4a 39 3d
       0.031075202 -0.046705455 0.020648124 0.04523724
000150 bc d0 7f bd 03 91 47 bc 00 30 a1 bb 41 94 77 3d
       -0.062454924 -0.01218057 -0.004919052 0.06044412
000160 a8 d7 4e bc 63 40 9b bd 8b e6 8a 3d cb 2f 98 3c
       -0.012624659 -0.0758064 0.06782254 0.018577477
000170 2e 1c 99 bd 65 48 fe 3b 5c 39 e2 3a 74 c3 9f bd
       -0.07476078 0.007760095 0.0017259526 -0.078009516
000180 a1 54 63 bd 1a bb a2 3d e8 40 1c 3b c0 a3 9f bd
       -0.05550063 0.07945843 0.0023842398 -0.07794905
000190 c0 cb 97 bd 92 f5 98 3c 3a b1 8f 3d 2b 7b a5 bd
       -0.07411909 0.018671785 0.07016225 -0.08080133
0001a0 f6 12 7d 3d ce fa 3b bd a9 6c 9c bd 84 59 fd bc
       0.06178566 -0.045893483 -0.07637913 -0.030926473
0001b0 a3 32 71 3d 99 99 fd 3c 49 6d 47 bd fe 99 bf 3c
       0.05888618 0.03095703 -0.048688207 0.023388859
0001c0 a4 c1 b1 bd c4 6a a3 3d 1e c8 7b 3d 22 16 4f 3d
       -0.08679512 0.07979348 0.061470143 0.050558217
0001d0 de 38 35 3d 45 b4 cd 3c 03 cf 12 bd 47 1c 51 bd
       0.044243686 0.025110373 -0.035841953 -0.051052358
0001e0 d1 cf 70 bd 8c 92 f7 bc 37 73 8b 3d 33 a7 5c 3d
       -0.05879194 -0.030221246 0.06809085 0.05387039
0001f0 40 11 10 bd cb e4 87 3d 9c bc 88 3d bd b1 47 3d
       -0.0351727 0.06635436 0.066765994 0.04875349
000200 2e ee 91 bc f6 27 94 3c 90 de bd 3c 43 5e 47 3d
       -0.017813768 0.018085461 0.023177415 0.04867388
000210 78 a4 2c 3d 7a 0b 81 3d e5 c0 1c 3d 3e 53 6a bd
       0.042149037 0.06301017 0.038269896 -0.057208292
000220 17 2d 97 3d 7a 70 8f 3c f4 5f 88 3d 98 81 8e bd
       0.07381647 0.017509688 0.066589266 -0.06958312
000230 2b 64 9c 3c da 55 88 3d 70 1c b0 bd 01 4f bb 3c
       0.019090733 0.06657 -0.08599174 0.02286482
000240 3f 65 32 bd fe 24 a9 bd 65 51 a8 bd ff 9d 55 3d
       -0.043553587 -0.08259009 -0.0821865 0.05215263
000250 8f 69 ef 3c 7b 32 ea 3c cf 62 80 bd 7a 99 8d 3d
       0.029225139 0.028588524 -0.06268846 0.06914039
000260 bb 03 94 bc 7a 00 7d bd 52 d2 e0 ba 4f 58 8f bc
       -0.018068185 -0.061768033 -0.0017152524 -0.017498164
000270 47 f0 b4 bd a1 45 37 3b 99 ec cd bc 5d 43 0d bd
       -0.08834892 0.0027965086 -0.025137233 -0.03448807
000280 80 1b 2d bb dc e1 cb bd c5 ad 27 bd c6 41 8f bd
       -0.0026414096 -0.09955189 -0.040937204 -0.06994967
000290 95 64 18 bb e7 75 4f bd bc ea 8a 3d 07 39 dd bb
       -0.002325331 -0.05064955 0.06783053 -0.006751183
0002a0 2b 35 ce 3c 38 52 ca bc 82 d9 97 3d d4 f2 66 bd
       0.025171837 -0.024697408 0.07414533 -0.056383923
0002b0 04 4d 45 3d 14 bb 9f bd d9 af 37 bd 89 97 a4 bd
       0.04816915 -0.07799354 -0.044845436 -0.080367155
0002c0 8a 98 56 3d f6 41 6b bd 5a e6 ea 3c 19 79 11 3d
       0.052391566 -0.057435952 0.028674293 0.03551588
0002d0 e0 be a9 bd ae e3 00 3d e1 87 68 bd f4 2f e8 bb
       -0.0828836 0.031467132 -0.05677021 -0.0070857946
0002e0 cc 24 e4 bc 58 9d 00 bd dd 8d 76 3d e4 14 ca bd
       -0.027849577 -0.031400055 0.060193885 -0.09867266
0002f0 e2 17 cc bc e8 4a 79 bd 04 5d 3f bd db 37 81 3d
       -0.024913732 -0.06086245 -0.046719566 0.06309482
000300 b0 17 41 bd 86 20 8f 3d 22 e1 9a bd 90 98 69 3d
       -0.04714173 0.06988625 -0.07562472 0.05703026
000310 1d 68 a4 3c 88 16 b3 bd 15 93 d8 bd 19 23 8e bd
       0.020069176 -0.08744532 -0.10574929 -0.06940288
000320 7f 45 a4 bc 4a 4c b4 bc 2f ac 48 3d e1 f8 4c bd
       -0.02005267 -0.022009034 0.048992332 -0.050042037
000330 a5 56 3f 3d 25 6e ba bd cb 2f a3 3d b1 03 2d 3d
       0.04671349 -0.0910304 0.079681 0.04223985
000340 3b ac 79 bd 27 10 2f bd ac 91 0c 3d 94 cf 0e 3d
       -0.060955267 -0.042740013 0.03431861 0.03486593
000350 40 20 4b bd c3 65 0f 3d de c6 f3 bc a9 47 f6 bc
       -0.049591303 0.035009157 -0.029757913 -0.030063467
000360 aa 51 d2 3c 6e c2 34 bd 62 27 82 3d 4c 4c 82 3d
       0.025673706 -0.044130735 0.06355168 0.06362209
000370 55 6d 1b 3d ad 38 95 3d df e3 ac b9 c8 80 20 bd
       0.037946064 0.07286201 -0.00032976174 -0.039185315
000380 14 f4 ac 3b 2b a9 de 3b 15 22 16 3c cc b0 fc ba
       0.00527812 0.0067950687 0.009163399 -0.0019278764
000390 90 51 d5 bc cd 5f c7 bb 7f 0a 83 bc 17 a5 a7 bb
       -0.026039869 -0.0060844184 -0.015996216 -0.005116116
0003a0 40 59 fa bb 93 0c c3 bd 33 6e 8f bd 89 81 dc 3c
       -0.007640034 -0.09523883 -0.07003441 0.026917236
0003b0 80 42 53 bc 37 5c fd ba ad af 0d bd e0 ed d1 bc
       -0.012894273 -0.001932985 -0.034591366 -0.025626123
0003c0 35 fc 9b 3c 85 ef 95 3d 30 ce 47 bd 39 84 72 bd
       0.01904116 0.07321075 -0.04878062 -0.05920813
0003d0 70 4d 08 bb 4e 81 21 bd 2a ff c1 3c fa 45 66 3b
       -0.002079811 -0.039429955 0.023681242 0.0035136924
0003e0 63 10 2a bd 90 2a cf bd 03 58 ee bc bc 3c 29 3c
       -0.041519534 -0.1011554 -0.029094702 0.010329422
0003f0 a9 18 b1 bd 12 2e 4c bd 08 55 85 3c 7d 22 9c 3b
       -0.08647282 -0.049848624 0.016275898 0.0047648535

layer2.bias f4 [128]
000000 50 fd 5d bd 80 8d 1d 3d 24 8c ed 3d a4 9d 94 3d
       -0.054196656 0.038465023 0.11598995 0.0725663
000010 60 40 82 3d e1 0c 0f bd 7d ac 9d 3d 7e e3 82 3c
       0.06359935 -0.03492439 0.07698915 0.015977617
000020 c4 df 0c bc 0d c6 27 3c 83 f4 af 3d 64 30 9e bd
       -0.008598272 0.01024009 0.08591559 -0.077240735
000030 a0 2b 99 3d ba c6 32 bc e8 d7 80 3d 12 bd f5 3c
       0.07479024 -0.010911638 0.06291181 0.029997382
000040 2d 9e 3d 3d cd 4a 78 3d b8 76 29 bc 55 9d c5 bd
       0.046293426 0.06061821 -0.010343246 -0.09649149
000050 45 4f 04 3e 98 ee 3b 3d f5 f6 9f bd ba b5 9d ba
       0.12920864 0.045881838 -0.07810775 -0.0012032308
000060 ab bb 27 3d 58 9c 0e 3e bf 69 3c 3d 6b 01 53 3d
       0.04095046 0.13926828 0.045999285 0.051515024
000070 d8 74 56 bd ed d6 2d bd f2 3f c7 3d cc c0 dc bb
       -0.052357525 -0.042441297 0.097289935 -0.0067368504
000080 0e 9d 60 bc 6a 41 2e bc 0f a4 18 3d ff 29 38 3b
       -0.01370932 -0.010635713 0.037265833 0.0028101203
000090 e9 12 e7 bc 24 97 06 bd 0a 5c ee 3c 79 df d0 3c
       -0.02820726 -0.032858983 0.029096622 0.025497185
0000a0 ae 54 99 3d 6e 3a 2b 3d e0 27 78 bd 10 d7 01 3d
       0.074868545 0.04180377 -0.060584903 0.03169924
0000b0 15 4d 54 3b a2 bb eb bc 83 86 aa 3d 5f 98 81 3c
       0.0032394577 -0.028775994 0.08326437 0.015819727
0000c0 6d fc 20 3d 6a 32 00 3d 08 b5 54 3d 9c c8 b3 3b
       0.039303232 0.03129808 0.051930457 0.005486561
0000d0 00 d4 73 3d 90 e1 b3 bd 4d 78 9a 3d eb 59 85 bd
       0.05952835 -0.08783257 0.07542477 -0.06511291
0000e0 50 16 8e bd 88 1a ed 3c 93 2f aa bd d2 4c 36 3e
       -0.069378495 0.028943315 -0.08309855 0.17802742
0000f0 59 b8 21 3d df fa 02 3e 3c bc 19 3e 63 60 80 bd
       0.03948245 0.12791012 0.15013212 -0.06268384
000100 8a cc 8f 3d 9f 2c c3 bc e1 7c 08 bc 39 bc 76 3d
       0.070214346 -0.023824988 -0.008330555 0.060238097
000110 f1 f8 af bd 9b b6 27 3e 43 86 4c 3d d0 4a 0d 3e
       -0.08592404 0.16378252 0.04993273 0.1379807
000120 bc 2d 9e bd ee 66 fb ba c3 66 a9 3d 3f 41 0b 3e
       -0.07723567 -0.0019180456 0.08271553 0.13599108
000130 ac 8a 48 3c 6a 83 9d bd 6e 4d 25 3d b5 91 a4 bd
       0.012240093 -0.07691081 0.040357046 -0.08035604
000140 e8 33 c2 3c c7 66 37 3d ab a4 b6 3c 46 31 35 3e
       0.023706391 0.04477575 0.022295317 0.17694578
000150 79 d5 9a bd ee 97 a1 3d 74 97 52 bd 47 4e 0a 3e
       -0.07560248 0.078903064 -0.05141397 0.13506423
000160 92 7a c5 3d b3 0d 9a bd 13 82 96 3d 6b 6f 0c 3e
       0.09642519 -0.07522144 0.073490284 0.13714378
000170 73 f2 3a 3c a8 22 89 bd 40 b4 61 bd 2b d6 1f 3e
       0.011410343 -0.06696063 -0.05510354 0.15609042
000180 f9 43 b7 3c e5 da c0 3d 64 be 1b 3d af fa e8 3c
       0.02237128 0.09416751 0.038023368 0.028439848
000190 5f 4c ee bc cb fc f5 bc b4 fc 2c bc d8 42 e9 3c
       -0.029089151 -0.030027768 -0.010558296 0.028474256
0001a0 1a 09 11 3d 4c 9d b8 3c fb 81 d7 3c ae bd cc 3d
       0.03540907 0.022535942 0.026307097 0.09997116
0001b0 74 6a b8 3c e6 2f 48 3d 4c 03 d8 3d f8 b8 0c 3e
       0.022511698 0.048873805 0.10547504 0.13742435
0001c0 fa a3 e5 3c 51 7d 8d 3c cd fb f4 3d 84 84 9a bd
       0.028032292 0.01727167 0.1196209 -0.075448066
0001d0 58 b6 cc 3d b9 3f 28 3a 0c 2b 1a 3e 6e 1c 1f 3e
       0.09995717 0.0006418187 0.15055484 0.15538189
0001e0 88 f9 32 3d 07 83 a0 3d 06 d1 09 3e 41 da f3 3d
       0.043695003 0.078374915 0.13458642 0.11906863
0001f0 b0 ac 2d 3d 3d 0a e3 3d ec 0e b3 bd 9a be a4 bd
       0.042401016 0.11085937 -0.087430805 -0.08044167

layer3.weight f4 [7, 128]
000000 76 35 2e 3b 67 e2 97 bc 1c 28 28 bd 28 ac 84 3d
       0.0026582158 -0.018540574 -0.041053876 0.06478149
000010 3c cc ac 3d 77 db 03 bd 19 b4 b5 3d f6 59 e2 3c
       0.08437392 -0.03219172 0.088722415 0.027630787
000020 89 a1 ff 3c b1 e8 8d 3d 2e 04 84 bd 81 28 b1 bd
       0.031204956 0.06929148 -0.0644611 -0.08650304
000030 fe 6b 02 3e 58 5b ad bd 99 e4 0e 3d 55 06 06 bd
       0.12736508 -0.08464688 0.034885976 -0.032720882
000040 51 fc 36 3d a6 22 59 3d 1e 7d 78 3c ee a2 11 3c
       0.04467422 0.05301156 0.015166549 0.008888943
000050 ab e2 a8 3d 75 f3 71 3d dd 0e b2 3b 28 e3 99 3d
       0.082463585 0.05907007 0.0054339007 0.0751403
000060 52 d6 d9 bb 58 c4 aa 3d 94 82 e6 bb 6a bc 87 3d
       -0.0066478634 0.08338231 -0.007034609 0.06627734
000070 b5 6d 83 3d c5 ff 80 3d a4 de af 3d 4d 53 a3 bc
       0.06417409 0.06298784 0.08587387 -0.019937182
000080 30 79 ca 3d 02 e6 4e 3d 20 b7 f0 3d 01 2a a0 bc
       0.09886396 0.05051232 0.11753678 -0.019551279
000090 47 da 29 3c 58 c2 ab 3d 4e 38 37 3d e7 67 6f 3d
       0.010366983 0.083866775 0.04473143 0.0584487
0000a0 a3 b7 0b 3e 79 28 c4 3d ff 02 c9 bc f2 67 18 3c
       0.1364427 0.09578032 -0.024537561 0.009302126
0000b0 8d 11 15 3c bb 90 5a bd de ec c5 3c ac df 47 bd
       0.009098423 -0.053360682 0.024160799 -0.048797294
0000c0 fa 39 b0 3d 26 58 07 bd 77 92 b3 3c d3 f2 8b bc
       0.08604808 -0.03304305 0.021920426 -0.017083561
0000d0 3b c1 49 3d 93 67 18 3d ae bb e1 bc 12 db 58 bc
       0.049256545 0.03720815 -0.027555313 -0.013235824
0000e0 45 62 88 bd 74 09 b2 3d d2 17 85 3c 3f b8 92 3d
       -0.066593684 0.08693209 0.01624671 0.071640484
0000f0 84 04 d0 3c b9 30 36 3d 47 bc b6 3d 3c 43 86 3c
       0.025392778 0.04448006 0.0892263 0.016389482
000100 16 04 1b 3d 34 96 64 bd a6 d6 22 3d 9b 1e c2 bc
       0.037845694 -0.055807307 0.039755486 -0.023696234
000110 63 61 25 bd ae f8 bd 3d 6c b0 a6 3d ca 62 8e 3d
       -0.04037608 0.092759475 0.081391186 0.06952436
000120 37 b7 23 bd 10 2b 6d bd 60 29 4d bd f8 ae 37 3d
       -0.03996965 -0.057902396 -0.050088286 0.044844598
000130 d6 ef df 3d 39 cb 35 3d 1b 2f 26 bd df a6 85 bd
       0.10934417 0.04438326 -0.040572267 -0.06525969
000140 36 e4 80 bd c7 9f 4a bd fd 97 8b 3d 5c d5 82 bc
       -0.06293528 -0.04946878 0.06816099 -0.015970878
000150 7d f8 36 bd 3c dc e6 3d a8 47 f3 bc bf c4 8b 3d
       -0.04467057 0.11272475 -0.029697254 0.06824636
000160 d4 98 c2 3d 2c 79 ab bd 53 1d 04 bd e1 6a 39 3d
       0.09501806 -0.08372721 -0.03225453 0.045267943
000170 b3 a2 91 3c e6 16 91 3d e2 0b d2 bc 0a 49 12 bd
       0.017777776 0.07084446 -0.025640432 -0.035714187
000180 51 52 6d bd 7c 58 5b 3d c4 f8 44 bd 12 8b 47 3d
       -0.05793983 0.053551182 -0.048088804 0.048716612
000190 ff 5e 52 bd 6c bb 5c bd 19 b3 a2 bd 13 40 a2 3d
       -0.051360127 -0.053889677 -0.079443164 0.079223774
0001a0 f6 a9 92 3c 8a c8 be bb 1e d3 dd bc 7c da 1e bd
       0.01790331 -0.005822246 -0.027078208 -0.03878258
0001b0 88 54 cb 3d f5 8b 40 3d 1f 9f 7e bd 20 c6 e5 3d
       0.099282324 0.047008473 -0.06216347 0.1121943
0001c0 df b0 9e bd 96 91 81 bc e1 8d e1 bc de e2 6e bd
       -0.07748579 -0.015816491 -0.027533473 -0.058321826
0001d0 70 59 87 3d 43 d6 b5 3c 2f 53 d5 3d 2f e3 f2 3d
       0.06608856 0.022196895 0.10416257 0.11859738
0001e0 61 2a 00 3e 08 82 f5 3b 06 c2 ac 3c f5 32 bf 3d
       0.12516166 0.0074923076 0.021088611 0.09335891
0001f0 6e 72 30 3d 19 cf 5b 3d 40 e0 8f bd c8 3d 89 bd
       0.04307788 0.0536643 -0.07025194 -0.06701237
000200 40 cd 2c 3b 09 4e 6e bd c7 e0 00 3e 8b fe 95 3d
       0.0026367456 -0.05817989 0.12585746 0.07323941
000210 3a b5 ab bb f9 c4 75 3d e4 fc 41 3d c6 1d 74 3a
       -0.0052401097 0.0600023 0.047360316 0.0009312298
000220 9d ca a0 3d 5d cf 61 3d c0 2b 8e bd 4f 24 1f bd
       0.078511454 0.055129398 -0.069419384 -0.038852986
000230 23 03 53 bc 31 09 43 bd 96 17 e2 3d 8f 04 b1 3d
       -0.012879166 -0.047616187 0.11039655 0.086434476
000240 98 fd ab 3d 58 8a a5 bd ca af fb bc 17 82 00 3d
       0.083979785 -0.080830276 -0.030723471 0.031374063
000250 6b 91 ff 3b e2 30 97 3d e9 40 c7 bd e0 16 cc 3d
       0.0077993176 0.073823705 -0.097291775 0.099653006
000260 0b cd d0 3b d5 99 0a bd 25 9f 97 3d 95 3c 2a bd
       0.0063720993 -0.033838112 0.07403401 -0.04156168
000270 9a 80 1c 3d 7a d6 74 3d de da e5 bc 30 e0 85 bd
       0.03820858 0.059774853 -0.028058466 -0.06536901
000280 32 08 9d 3d 0b 90 c8 3a 2a a3 ae 3d 97 04 38 3d
       0.07667579 0.0015301717 0.08527215 0.044926252
000290 13 29 38 3d 42 5f 91 bc 7a 78 19 bd 20 56 ce 3d
       0.044961046 -0.017745618 -0.03746841 0.10075021
0002a0 1b a4 55 bb 44 51 97 3d a9 a0 df 3b da 87 00 3d
       -0.0032599035 0.07388547 0.006824572 0.03137956
0002b0 a3 87 4e bd 52 34 b3 3d 7e d1 9b 3d ea 6d b0 bc
       -0.050422322 0.08750214 0.07608317 -0.021536786
0002c0 5b 18 be 3d 4c f9 88 bd 70 85 ee 3d 75 f2 f3 3d
       0.09281989 -0.066881746 0.11646545 0.119114794
0002d0 36 44 31 3c 76 cb 37 bd d1 92 38 bc 26 77 f5 bd
       0.010819485 -0.04487177 -0.0112654725 -0.119856164
0002e0 e3 a2 15 bd ac 74 a4 3c d5 93 9f bb e7 51 dc 3d
       -0.036532294 0.020075165 -0.004869918 0.10757809
0002f0 c9 77 b7 3d f0 c0 86 3d 26 54 08 bd 90 6f 01 bc
       0.08958394 0.06579769 -0.033283375 -0.007900134
000300 2c 09 71 bd 6d 67 f0 3c 84 96 b5 3b c6 65 a7 bc
       -0.058846638 0.029346192 0.0055416245 -0.020434272
000310 c3 ca 9a bc 0c d5 1d 3d 02 33 e5 3d 13 f2 ac 3d
       -0.018895512 0.038533255 0.111913696 0.084446095
000320 ab cd b1 bd 75 a8 3c 3c df dc 51 3d f9 c8 98 bb
       -0.08681806 0.011514773 0.05123603 -0.0046626297
000330 ad b1 c4 3d 45 3d 60 bd 88 f5 f9 bc 59 2f 41 3c
       0.096042015 -0.05474593 -0.030512586 0.011791074
000340 76 a4 c7 bc 52 e0 6f 3d 36 73 88 3d a0 1b 60 3d
       -0.024370413 0.058563538 0.066626 0.054713845
000350 56 3a 8a bd 22 ed 1d bd cc 02 32 bd 96 47 81 3d
       -0.06749408 -0.038556226 -0.0434597 0.06312482
000360 26 fa dd 3d 0e 6b 49 3d 53 b2 cf bb a7 aa 9c 3d
       0.10838728 0.04917436 -0.0063383966 0.07649737
000370 19 ac 52 bd 51 4c 35 3b e4 41 68 bd 98 3e fc 3b
       -0.051433656 0.0027663896 -0.056703463 0.0076978914
000380 0a 56 a1 3c ad 64 be 3d ce 65 9e 3c 06 96 9f bd
       0.019694347 0.09296546 0.019335654 -0.077922866
000390 69 71 c1 bd ca 03 f1 bc b6 c0 1f bd c5 cc 9d 3d
       -0.094454594 -0.029420752 -0.039002143 0.07705072
0003a0 14 dc 7d 3d d5 56 a1 3d e2 85 18 3d a4 f2 00 3e
       0.06197746 0.0787789 0.037237056 0.1259256
0003b0 68 0d 90 bc 4d 7d e2 3d 44 b7 6b bd 2f a6 46 bb
       -0.017584518 0.110590555 -0.057547823 -0.0030311455
0003c0 86 2e 91 bd a8 12 a5 3d a6 7e 00 3e a3 66 95 bb
       -0.07088952 0.08060199 0.12548313 -0.0045593544
0003d0 f6 8f 9f 3d da 56 ab bc 2e 10 0d 3d 06 b2 9b 3c
       0.0779113 -0.020915437 0.03443926 0.019005787
0003e0 0f c4 35 3d 3c 8d b7 3d a3 d1 8d 3d 42 05 09 bd
       0.04437643 0.08962485 0.06924751 -0.03345228
0003f0 b9 98 81 3d 3b 8f 06 3e 8e e3 0d bd 37 77 af bc
       0.06327958 0.13140576 -0.03464084 -0.02141915

layer3.bias f4 [7]
000000 30 3e 0d 3e 7b d2 f8 bb 1e 06 d1 3d f8 75 84 3d
       0.13793254 -0.0075934506 0.10206245 0.06467813
000010 ca 11 48 3d e4 38 ee 3d fe a6 da 3b
       0.04884509 0.11631945 0.006672739
